…
    RandomResizedCrop(size=(224, 224), scale=(0.08, 1.0), ratio=(0.75, 1.3333), interpolation=bilinear), antialias=None)
    RandomHorizontalFlip(p=0.5)
    ColorJitter(brightness=[0.8745098039215686, 1.1254901960784314], contrast=None, saturation=[0.5, 1.5], hue=None)
    ToTensor()
    Normalize(mean=[0.485, 0.456, 0.406], std=[0.229, 0.224, 0.225])
)
Compose(
    Resize(size=256, interpolation=bilinear, max_size=None, antialias=None)
    CenterCrop(size=(224, 224))
    ToTensor()
    Normalize(mean=[0.485, 0.456, 0.406], std=[0.229, 0.224, 0.225])
)
MobileNetV3(
  (first_conv): ConvLayer(
    (conv): Conv2d(3, 16, kernel_size=(3, 3), stride=(2, 2), padding=(1, 1), bias=False)
    (bn): BatchNorm2d(16, eps=1e-05, momentum=0.1, affine=True, track_running_stats=True)
    (act): Hswish()
  )
  (blocks): ModuleList(
    (0): ResidualBlock(
      (conv): MBConvLayer(
        (depth_conv): Sequential(
          (conv): Conv2d(16, 16, kernel_size=(3, 3), stride=(1, 1), padding=(1, 1), groups=16, bias=False)
          (bn): BatchNorm2d(16, eps=1e-05, momentum=0.1, affine=True, track_running_stats=True)
          (act): ReLU(inplace=True)
        )
        (point_linear): Sequential(
          (conv): Conv2d(16, 16, kernel_size=(1, 1), stride=(1, 1), bias=False)
          (bn): BatchNorm2d(16, eps=1e-05, momentum=0.1, affine=True, track_running_stats=True)
        )
      )
      (shortcut): IdentityLayer()
    )
    (1): ResidualBlock(
      (conv): MBConvLayer(
        (inverted_bottleneck): Sequential(
          (conv): Conv2d(16, 48, kernel_size=(1, 1), stride=(1, 1), bias=False)
          (bn): BatchNorm2d(48, eps=1e-05, momentum=0.1, affine=True, track_running_stats=True)
          (act): ReLU(inplace=True)
        )
        (depth_conv): Sequential(
          (conv): Conv2d(48, 48, kernel_size=(3, 3), stride=(2, 2), padding=(1, 1), groups=48, bias=False)
          (bn): BatchNorm2d(48, eps=1e-05, momentum=0.1, affine=True, track_running_stats=True)
          (act): ReLU(inplace=True)
        )
        (point_linear): Sequential(
          (conv): Conv2d(48, 24, kernel_size=(1, 1), stride=(1, 1), bias=False)
          (bn): BatchNorm2d(24, eps=1e-05, momentum=0.1, affine=True, track_running_stats=True)
        )
      )
    )
    (2): ResidualBlock(
      (conv): MBConvLayer(
        (inverted_bottleneck): Sequential(
          (conv): Conv2d(24, 72, kernel_size=(1, 1), stride=(1, 1), bias=False)
          (bn): BatchNorm2d(72, eps=1e-05, momentum=0.1, affine=True, track_running_stats=True)
          (act): ReLU(inplace=True)
        )
        (depth_conv): Sequential(
          (conv): Conv2d(72, 72, kernel_size=(7, 7), stride=(1, 1), padding=(3, 3), groups=72, bias=False)
          (bn): BatchNorm2d(72, eps=1e-05, momentum=0.1, affine=True, track_running_stats=True)
          (act): ReLU(inplace=True)
        )
        (point_linear): Sequential(
          (conv): Conv2d(72, 24, kernel_size=(1, 1), stride=(1, 1), bias=False)
          (bn): BatchNorm2d(24, eps=1e-05, momentum=0.1, affine=True, track_running_stats=True)
        )
      )
      (shortcut): IdentityLayer()
    )
    (3): ResidualBlock(
      (conv): MBConvLayer(
        (inverted_bottleneck): Sequential(
          (conv): Conv2d(24, 144, kernel_size=(1, 1), stride=(1, 1), bias=False)
          (bn): BatchNorm2d(144, eps=1e-05, momentum=0.1, affine=True, track_running_stats=True)
          (act): ReLU(inplace=True)
        )
        (depth_conv): Sequential(
          (conv): Conv2d(144, 144, kernel_size=(3, 3), stride=(1, 1), padding=(1, 1), groups=144, bias=False)
          (bn): BatchNorm2d(144, eps=1e-05, momentum=0.1, affine=True, track_running_stats=True)
          (act): ReLU(inplace=True)
        )
        (point_linear): Sequential(
          (conv): Conv2d(144, 24, kernel_size=(1, 1), stride=(1, 1), bias=False)
          (bn): BatchNorm2d(24, eps=1e-05, momentum=0.1, affine=True, track_running_stats=True)
        )
      )
      (shortcut): IdentityLayer()
    )
    (4): ResidualBlock(
      (conv): MBConvLayer(
        (inverted_bottleneck): Sequential(
          (conv): Conv2d(24, 72, kernel_size=(1, 1), stride=(1, 1), bias=False)
          (bn): BatchNorm2d(72, eps=1e-05, momentum=0.1, affine=True, track_running_stats=True)
          (act): ReLU(inplace=True)
        )
        (depth_conv): Sequential(
          (conv): Conv2d(72, 72, kernel_size=(5, 5), stride=(2, 2), padding=(2, 2), groups=72, bias=False)
          (bn): BatchNorm2d(72, eps=1e-05, momentum=0.1, affine=True, track_running_stats=True)
          (act): ReLU(inplace=True)
          (se): SE(channel=72, reduction=4)
        )
        (point_linear): Sequential(
          (conv): Conv2d(72, 40, kernel_size=(1, 1), stride=(1, 1), bias=False)
          (bn): BatchNorm2d(40, eps=1e-05, momentum=0.1, affine=True, track_running_stats=True)
        )
      )
    )
    (5): ResidualBlock(
      (conv): MBConvLayer(
        (inverted_bottleneck): Sequential(
          (conv): Conv2d(40, 120, kernel_size=(1, 1), stride=(1, 1), bias=False)
          (bn): BatchNorm2d(120, eps=1e-05, momentum=0.1, affine=True, track_running_stats=True)
          (act): ReLU(inplace=True)
        )
        (depth_conv): Sequential(
          (conv): Conv2d(120, 120, kernel_size=(3, 3), stride=(1, 1), padding=(1, 1), groups=120, bias=False)
          (bn): BatchNorm2d(120, eps=1e-05, momentum=0.1, affine=True, track_running_stats=True)
          (act): ReLU(inplace=True)
          (se): SE(channel=120, reduction=4)
        )
        (point_linear): Sequential(
          (conv): Conv2d(120, 40, kernel_size=(1, 1), stride=(1, 1), bias=False)
          (bn): BatchNorm2d(40, eps=1e-05, momentum=0.1, affine=True, track_running_stats=True)
        )
      )
      (shortcut): IdentityLayer()
    )
    (6): ResidualBlock(
      (conv): MBConvLayer(
        (inverted_bottleneck): Sequential(
          (conv): Conv2d(40, 240, kernel_size=(1, 1), stride=(1, 1), bias=False)
          (bn): BatchNorm2d(240, eps=1e-05, momentum=0.1, affine=True, track_running_stats=True)
          (act): Hswish()
        )
        (depth_conv): Sequential(
          (conv): Conv2d(240, 240, kernel_size=(3, 3), stride=(2, 2), padding=(1, 1), groups=240, bias=False)
          (bn): BatchNorm2d(240, eps=1e-05, momentum=0.1, affine=True, track_running_stats=True)
          (act): Hswish()
        )
        (point_linear): Sequential(
          (conv): Conv2d(240, 80, kernel_size=(1, 1), stride=(1, 1), bias=False)
          (bn): BatchNorm2d(80, eps=1e-05, momentum=0.1, affine=True, track_running_stats=True)
        )
      )
    )
    (7): ResidualBlock(
      (conv): MBConvLayer(
        (inverted_bottleneck): Sequential(
          (conv): Conv2d(80, 240, kernel_size=(1, 1), stride=(1, 1), bias=False)
          (bn): BatchNorm2d(240, eps=1e-05, momentum=0.1, affine=True, track_running_stats=True)
          (act): Hswish()
        )
        (depth_conv): Sequential(
          (conv): Conv2d(240, 240, kernel_size=(7, 7), stride=(1, 1), padding=(3, 3), groups=240, bias=False)
          (bn): BatchNorm2d(240, eps=1e-05, momentum=0.1, affine=True, track_running_stats=True)
          (act): Hswish()
        )
        (point_linear): Sequential(
          (conv): Conv2d(240, 80, kernel_size=(1, 1), stride=(1, 1), bias=False)
          (bn): BatchNorm2d(80, eps=1e-05, momentum=0.1, affine=True, track_running_stats=True)
        )
      )
      (shortcut): IdentityLayer()
    )
    (8): ResidualBlock(
      (conv): MBConvLayer(
        (inverted_bottleneck): Sequential(
          (conv): Conv2d(80, 320, kernel_size=(1, 1), stride=(1, 1), bias=False)
          (bn): BatchNorm2d(320, eps=1e-05, momentum=0.1, affine=True, track_running_stats=True)
          (act): Hswish()
        )
        (depth_conv): Sequential(
          (conv): Conv2d(320, 320, kernel_size=(7, 7), stride=(1, 1), padding=(3, 3), groups=320, bias=False)
          (bn): BatchNorm2d(320, eps=1e-05, momentum=0.1, affine=True, track_running_stats=True)
          (act): Hswish()
          (se): SE(channel=320, reduction=4)
        )
        (point_linear): Sequential(
          (conv): Conv2d(320, 112, kernel_size=(1, 1), stride=(1, 1), bias=False)
          (bn): BatchNorm2d(112, eps=1e-05, momentum=0.1, affine=True, track_running_stats=True)
        )
      )
    )
    (9): ResidualBlock(
      (conv): MBConvLayer(
        (inverted_bottleneck): Sequential(
          (conv): Conv2d(112, 448, kernel_size=(1, 1), stride=(1, 1), bias=False)
          (bn): BatchNorm2d(448, eps=1e-05, momentum=0.1, affine=True, track_running_stats=True)
          (act): Hswish()
        )
        (depth_conv): Sequential(
          (conv): Conv2d(448, 448, kernel_size=(5, 5), stride=(1, 1), padding=(2, 2), groups=448, bias=False)
          (bn): BatchNorm2d(448, eps=1e-05, momentum=0.1, affine=True, track_running_stats=True)
          (act): Hswish()
          (se): SE(channel=448, reduction=4)
        )
        (point_linear): Sequential(
          (conv): Conv2d(448, 112, kernel_size=(1, 1), stride=(1, 1), bias=False)
          (bn): BatchNorm2d(112, eps=1e-05, momentum=0.1, affine=True, track_running_stats=True)
        )
      )
      (shortcut): IdentityLayer()
    )
    (10): ResidualBlock(
      (conv): MBConvLayer(
        (inverted_bottleneck): Sequential(
          (conv): Conv2d(112, 672, kernel_size=(1, 1), stride=(1, 1), bias=False)
          (bn): BatchNorm2d(672, eps=1e-05, momentum=0.1, affine=True, track_running_stats=True)
          (act): Hswish()
        )
        (depth_conv): Sequential(
          (conv): Conv2d(672, 672, kernel_size=(3, 3), stride=(2, 2), padding=(1, 1), groups=672, bias=False)
          (bn): BatchNorm2d(672, eps=1e-05, momentum=0.1, affine=True, track_running_stats=True)
          (act): Hswish()
          (se): SE(channel=672, reduction=4)
        )
        (point_linear): Sequential(
          (conv): Conv2d(672, 160, kernel_size=(1, 1), stride=(1, 1), bias=False)
          (bn): BatchNorm2d(160, eps=1e-05, momentum=0.1, affine=True, track_running_stats=True)
        )
      )
    )
    (11): ResidualBlock(
      (conv): MBConvLayer(
        (inverted_bottleneck): Sequential(
          (conv): Conv2d(160, 640, kernel_size=(1, 1), stride=(1, 1), bias=False)
          (bn): BatchNorm2d(640, eps=1e-05, momentum=0.1, affine=True, track_running_stats=True)
          (act): Hswish()
        )
        (depth_conv): Sequential(
          (conv): Conv2d(640, 640, kernel_size=(5, 5), stride=(1, 1), padding=(2, 2), groups=640, bias=False)
          (bn): BatchNorm2d(640, eps=1e-05, momentum=0.1, affine=True, track_running_stats=True)
          (act): Hswish()
          (se): SE(channel=640, reduction=4)
        )
        (point_linear): Sequential(
          (conv): Conv2d(640, 160, kernel_size=(1, 1), stride=(1, 1), bias=False)
          (bn): BatchNorm2d(160, eps=1e-05, momentum=0.1, affine=True, track_running_stats=True)
        )
      )
      (shortcut): IdentityLayer()
    )
  )
  (final_expand_layer): ConvLayer(
    (conv): Conv2d(160, 960, kernel_size=(1, 1), stride=(1, 1), bias=False)
    (bn): BatchNorm2d(960, eps=1e-05, momentum=0.1, affine=True, track_running_stats=True)
    (act): Hswish()
  )
  (global_avg_pool): MyGlobalAvgPool2d(keep_dim=True)
  (feature_mix_layer): ConvLayer(
    (conv): Conv2d(960, 1280, kernel_size=(1, 1), stride=(1, 1), bias=False)
    (act): Hswish()
  )
  (classifier): LinearLayer(
    (linear): Linear(in_features=1280, out_features=1000, bias=True)
  )
)
